…
2/models', backup_dir='outputs/DGCNN_SUBCENTER_SR2/backup-code')
Config: {'optimizer': {'type': 'sgd', 'skip_wd': [], 'weight_decay': 0.0001, 'kwargs': {'lr': 0.1, 'momentum': 0.9}}, 'scheduler': {'type': 'CosLR', 'kwargs': {'t_initial': 250, 'cycle_limit': 1, 'lr_min': 0.0001}}, 'model': {'ENCO_NAME': 'DGCNN', 'k': 20, 'emb_dims': 1024, 'dropout': 0.5, 'cla_input_dim': 2048, 'act': 'leakyrelu'}}
World size: 1

SR2 train synset: {'bed': 0, 'toilet': 1, 'desk': 2, 'monitor': 3, 'table': 2}
Source: SR2
Num training classes: 4
Model: 
Classifier(
  (enco): DGCNN(
    (conv1): Sequential(
      (0): Conv2d(6, 64, kernel_size=(1, 1), stride=(1, 1), bias=False)
      (1): BatchNorm2d(64, eps=1e-05, momentum=0.1, affine=True, track_running_stats=True)
      (2): LeakyReLU(negative_slope=0.2)
    )
    (conv2): Sequential(
      (0): Conv2d(128, 64, kernel_size=(1, 1), stride=(1, 1), bias=False)
      (1): BatchNorm2d(64, eps=1e-05, momentum=0.1, affine=True, track_running_stats=True)
      (2): LeakyReLU(negative_slope=0.2)
    )
    (conv3): Sequential(
      (0): Conv2d(128, 128, kernel_size=(1, 1), stride=(1, 1), bias=False)
      (1): BatchNorm2d(128, eps=1e-05, momentum=0.1, affine=True, track_running_stats=True)
      (2): LeakyReLU(negative_slope=0.2)
    )
    (conv4): Sequential(
      (0): Conv2d(256, 256, kernel_size=(1, 1), stride=(1, 1), bias=False)
      (1): BatchNorm2d(256, eps=1e-05, momentum=0.1, affine=True, track_running_stats=True)
      (2): LeakyReLU(negative_slope=0.2)
    )
    (conv5): Sequential(
      (0): Conv1d(512, 1024, kernel_size=(1,), stride=(1,), bias=False)
      (1): BatchNorm1d(1024, eps=1e-05, momentum=0.1, affine=True, track_running_stats=True)
      (2): LeakyReLU(negative_slope=0.2)
    )
  )
  (penultimate): Sequential(
    (0): Linear(in_features=2048, out_features=512, bias=False)
    (1): BatchNorm1d(512, eps=1e-05, momentum=0.1, affine=True, track_running_stats=True)
    (2): LeakyReLU(negative_slope=0.2)
    (3): Dropout(p=0.5, inplace=False)
    (4): Linear(in_features=512, out_features=256, bias=True)
  )
  (head): SubcenterArcMarginProduct()
)

param count: 
1.8019 M
Loss: subcenter_arcface

it: [10/29-1/250], rank: [1/1], Loss: 12.4210, Loss avg: 15.0533, lr: 0.100000, BT: 0.79, DT: 0.00
it: [20/29-1/250], rank: [1/1], Loss: 7.2129, Loss avg: 11.7357, lr: 0.100000, BT: 0.79, DT: 0.00
Train [1/250]	rank: [1/1], Loss: 9.9646, Acc: 0.6282, Bal Acc: 0.6034, BT: 1.26, DT: 0.02,  epoch time: 36.45
…
